reflection/models/best.pt (torch, 23447 bytes, 6 tensors)

func.0.weight f4 [64, 42]
00000000: e750 053e 45d8 5b3d 0e76 ebbc f1fb e1bd
00000010: 5389 2bbd 7dc8 06be f518 c5bc e810 21be
00000020: d80b ed3d 3e82 1fbd 4313 98bd 5f66 0abe
00000030: 6425 a93d 8c9c 08bd ad82 b2bd 573b a7bd
00000040: fc04 d13d f9ef c33d e477 0dbe 30ce 223d
00000050: cb6a 10bb e0df 0cbe 3131 f63d aa25 b83c
00000060: e417 41bd 8bae 05bd 7085 6cbd 6082 b73d
00000070: 2a0b cfbd 9db3 1fbe 2649 9bbd d864 ec3d
00000080: 6cc7 12be c545 fcbd cfc3 a5bd 6037 683d
00000090: d2fc c3ba d6ba 733d 917f 03bd 4038 b93c
000000a0: 4b4c aa3c 049b 593d 6888 33bd b72f 35bf
000000b0: 47b6 5d3e e781 1fbf e25b 413e d37f 0fbf
000000c0: ae4f 5f3e 99e4 b9bd a6fb c63e ac94 2bbe
000000d0: 7d12 6cbe 004c e5bd 9e1b 50be 3686 a8be
000000e0: 4659 3a3e 77b6 dc3e e76f bd3e 0d45 923f
000000f0: 9da6 e8be d4d9 583e 77cf 14be d14b 94be
00000100: 55d4 253e 3844 963d 41c2 ce3e 4f55 e63e
00000110: 770c c7be e10f d63d 8d45 70be 2db3 e4bd
00000120: df85 a7bd 0bba 9e3e 2522 113e 5855 1c3f
00000130: fc55 5dbe 8915 df3c 2be0 2cbe fd57 f4be
00000140: c8bc 003d 4f79 4ebe bf69 6f3e 4516 063c
00000150: 33d4 3c3e 11d0 a83e 6589 223e 43b9 173b
00000160: 0945 063d d2a2 5a3e c630 d9bd 58d9 93bb
00000170: 54f8 5cbe b14f 773d a012 7e3e e538 5fbc
00000180: 5ae7 b53d 541f fdbb 383f 4dbc c160 ef3e
00000190: 563f c13c 9225 a23f 75c5 723d 7df9 57be
000001a0: 0d31 be3d 1883 a4be 6c95 0cbe a637 91be
000001b0: 7378 cbbe 710e b6be 4c89 ad3d 75b0 8a3d
000001c0: 0076 043e de3a 82be ecb2 70bc 5280 65be
000001d0: 33de e1be c5a1 0abe 9cf2 813d fdcd 893e
000001e0: 1297 b6bc e55e 19be 8c47 17bd a5a1 00bf
000001f0: f779 0ebe 43a9 45bf eb55 cc3d f7cc 6fbd
00000200: 88d0 36ba a005 d3bd 8e91 e83c 612b ac3b
00000210: dc71 19be 9398 fa3b a730 a43d c877 1cbe
00000220: ff23 fdbd 9620 b6bc 7e97 b93d 71b5 883c
00000230: 74db 39ba 4a97 52bd 5cc5 1abe 8928 be3d
00000240: e43c e03b c5d1 13be b8f8 adbd 487d 11be
00000250: 4844 dbbd 12ae f23c 5083 ab3d 67b2 e63c
00000260: a4f6 ff3d 3534 c0bd 0e41 96bd 65dc 12bd
00000270: 94be 0cbe 9562 033e 3bad da3d a018 8f3d
00000280: 102d 16bd 5928 133e 2aa5 65bd eadd 84bc
00000290: 5434 0e3e 3311 293d b520 203c 432f f2bd
000002a0: 2fbe bf3d ee35 213d e591 17be 4418 01be
000002b0: 55a6 9ebd 0bce 8abd 870d bf3d 7f45 573c
000002c0: a9c7 d8bd 551d ef3d 5572 26bd 79b3 a6bd
000002d0: 0773 da3d e8f0 d3bd 1cd8 dbbc 3777 a0bd
000002e0: 206d 1ebe 4432 093e 796e cbbd 742f 943b
000002f0: b471 d43a f140 8b3d c52c fabd c894 583c
00000300: f821 0e3e 55dc 2a3c a11d 01be 8d8e b4bd
00000310: 9442 20bd 320e 18be f612 143d 1718 02be
00000320: 258a 403d 9eb5 953d 76a5 8b3c 1694 1a3d
00000330: 8404 3f3d d366 22be ff75 1bbd ce31 003e
00000340: d86a 10be eef6 2bbd ab09 ce3e ff10 93be
00000350: 33d1 d43e c24e 8fbe e019 bb3d dd0f 88be
00000360: 4165 b9bd f3e7 7f3e 8a3b ffbe 506d 123f
00000370: 057d 213f e893 94be 775c b03e 73cb c8be
00000380: c9bc 7ebc 728e b9be 592b e4be f08f 16bf
00000390: ed01 bf3e 84f0 fa3d 982c bb3e 881b abbd
000003a0: 4907 a2be ee61 a1be d7ae 63bf 4b1f f3bd
000003b0: b71c 783e d4b7 c73e 7b0f 023c 225c 733e
000003c0: 1f7c 62be d930 113d 7957 abbe a1d2 5d3d
000003d0: a438 c73d 5332 113f 54ed 38be a7c9 153f
000003e0: cf31 76be 8cab 303e 6ea8 4bbe c1ff ad3d
000003f0: d865 5bbe 5ea9 46be 6224 3fbf 9355 36be
0.13019143 0.053673048 -0.028742816 -0.11034382 -0.04187901 -0.13162418 -0.024059752 -0.15729105
0.11574525 -0.038942568 -0.07425549 -0.13515614 0.08259085 -0.03335242 -0.08716331 -0.08165615
0.10206029 0.095672555 -0.13815266 0.039747417 -0.002203631 -0.13757277 0.12021101 0.022478897
-0.047141925 -0.03263716 -0.057744443 0.08960414 -0.10109551 -0.15595861 -0.07582311 0.11542672
-0.14333886 -0.12317995 -0.08093988 0.056693435 -0.0014952666 0.059504353 -0.03210408 0.02260983
0.020788332 0.05312635 -0.04383126 -0.7077593 0.21651565 -0.6230759 0.18882707 -0.5605442
0.21807739 -0.09076805 0.38863868 -0.16755933 -0.23053928 -0.111961365 -0.20323035 -0.32914895
0.18198118 0.4310796 0.36999437 1.1427323 -0.45439616 0.21176845 -0.14532267 -0.28964093
0.1619428 0.073372304 0.4038258 0.4498696 -0.38876697 0.104522474 -0.23464032 -0.111669876
-0.08179831 0.31001315 0.14173181 0.61067724 -0.21614832 0.027231948 -0.16882388 -0.4772338
0.031430036 -0.20163463 0.23380183 0.00818402 0.18440323 0.32971242 0.15872724 0.0023151196
0.03278068 0.21351174 -0.10605006 -0.0045119934 -0.21579105 0.060378734 0.24811792 -0.013624405
0.088820174 -0.007724682 -0.01252728 0.46753505 0.023589771 1.2667716 0.05927034 -0.21091266
0.092866994 -0.32131267 -0.13728875 -0.2836277 -0.39740333 -0.35557893 0.08473453 0.06771938
0.12935638 -0.25435537 -0.014691096 -0.22412232 -0.44114837 -0.13538273 0.06345102 0.2691497
-0.022288833 -0.14977606 -0.036933467 -0.5024665 -0.13913713 -0.772114 0.09977325 -0.05854508
-0.00069738226 -0.10303807 0.028389718 0.0052541946 -0.1498484 0.007647583 0.08017092 -0.15280068
-0.12360381 -0.022232335 0.09062098 0.01668808 -0.0007089891 -0.05141381 -0.15114349 0.09285075
0.006843196 -0.1443549 -0.08494705 -0.14207947 -0.10706383 0.029624019 0.08374655 0.02816124
0.12498215 -0.09384958 -0.07336627 -0.035854716 -0.13744575 0.12830575 0.10677572 0.06987119
-0.03666407 0.1437086 -0.056065716 -0.016219098 0.13887149 0.041276168 0.009773423 -0.11825421
0.093624465 0.039358072 -0.14801748 -0.12606913 -0.07746569 -0.06777581 0.09328752 0.013139128
-0.10584957 0.116755165 -0.04063638 -0.081397004 0.10666471 -0.103486836 -0.026836447 -0.078352384
-0.15471315 0.13398081 -0.0993318 0.0045222584 0.0016208203 0.06799496 -0.1221557 0.013219066
0.13880146 0.010428508 -0.12608959 -0.08816252 -0.039125994 -0.14849165 0.036150895 -0.12704502
0.047006745 0.07310031 0.017046671 0.037738882 0.046635166 -0.15859537 -0.037954327 0.12518999
-0.14103258 -0.041983537 0.4024175 -0.28723904 0.41565856 -0.27989775 0.09135795 -0.26574603
-0.09052516 0.24990825 -0.49850112 0.5719805 0.6308139 -0.29019094 0.34445545 -0.3921772
-0.01554794 -0.3624149 -0.44564322 -0.5881338 0.37306157 0.12252906 0.3655746 -0.083548605
-0.31646183 -0.31520027 -0.8893866 -0.11871203 0.24229704 0.39007437 0.007938261 0.23765615
-0.22117661 0.035446975 -0.33465174 0.05415595 0.097276 0.56717414 -0.18059283 0.5851082
-0.24042438 0.1725294 -0.1988847 0.08496047 -0.21425569 -0.19400546 -0.7466489 -0.17806081

func.0.bias f4 [64]
00000000: dc8b a03d b716 d03e 886d 82be d7f8 6abd
00000010: 86a1 133e d414 77be 84a2 7e3e 20c9 0fbe
00000020: 6730 78bc af5a 83bd 608c ed3d c2a8 89be
00000030: 2b7b b93d bbd7 9fbd bf7e 703d da1d 0f3f
00000040: 755c c9bc 2688 b2be 00df 0e3e 3a8c d3be
00000050: b04c ccbd c1f7 3f3e b06f 663d fd84 513b
00000060: a5ae d3be 4540 d73d 77a5 ffbd 1436 acbe
00000070: 5d6c 6d3d 4bf2 f33e b012 6fbe edb9 1b3e
00000080: e1bb 84bd 8d43 eabc d445 37bd 515d 823d
00000090: aa86 1cbe b34a 0c3e 57cc e8bc 6080 ec3c
000000a0: 38dc ffbc 948f f03b 6599 403d 0ba4 5c3e
000000b0: 41b2 593d 15d1 433e 2e9e 51bd e6d4 8fbd
000000c0: ee5f 63bd 2b8b c9bd 7afd 95bd b1c7 c13e
000000d0: 7229 773b e302 803e 4c27 cf3d fea8 d93c
000000e0: c931 cbbd e2ec 323e 2220 60bd 7eaa adbd
000000f0: f492 893d 2dca 643e 2418 12bd c0e5 92bb
0.07839176 0.4064233 -0.2547419 -0.05736622 0.14417085 -0.24129039 0.24866682 -0.14041567
-0.015148259 -0.06413781 0.1159904 -0.26886564 0.090566956 -0.07804819 0.058714624 0.55904925
-0.02458022 -0.34869498 0.13952255 -0.41317922 -0.099755645 0.18746854 0.056258857 0.0031970136
-0.4134418 0.10510305 -0.12482732 -0.33635008 0.05796467 0.47645792 -0.23346972 0.15207644
-0.064811476 -0.028596664 -0.044744328 0.06365455 -0.15285745 0.1370037 -0.02841775 0.028869808
-0.031232938 0.0073413346 0.04702129 0.21546952 0.05314851 0.19122727 -0.051176243 -0.07023029
-0.055511408 -0.09840997 -0.073237374 0.37847665 0.0037713912 0.25002202 0.10114917 0.02656984
-0.09921605 0.17473176 -0.054718144 -0.084797844 0.06717482 0.22342749 -0.035667554 -0.0044829547

func.2.weight f4 [32, 64]
00000000: a16a c33d cd3b a83e 902d 8fbf eafa 553c
00000010: 27ae d73c d080 4c3e 1a78 93bf 4a76 633c
00000020: 63ee d739 84cc a63d 7cef 87c0 db2b 8ebe
00000030: 1b26 3f3d 96fc 473d 73db 0e3e ce81 21bd
00000040: 2d3c 58c0 4766 29bf 1121 7ac0 44a0 cdbf
00000050: dd0a b33d 46e5 b43c bcce cabf 9812 62bf
00000060: 2458 b8bf 2d9e 113d 8de6 03be 9fd6 173e
00000070: a5b0 18c0 99f0 eb3d 2d06 8abf 8d31 e2bc
00000080: ddda abbb 7ff4 abbd 2343 c7bf 12f7 883d
00000090: 729c 6fbd b7a3 ba3d 6af7 903e 00ab 08bf
000000a0: 2cc0 ccbd fac2 f83d 7843 f93d 6985 e2bf
000000b0: 0ded 8a3e 57ea 2b3e 3273 28bd c814 553e
000000c0: 45a7 ac3d 65d0 ac3d 026c 7bbe 6bf4 963e
000000d0: 0c31 d2bf 5b8e 27bc 193c b9bd 4bbf 42be
000000e0: 5e93 78bd 7712 f83d 1e7a 753d b958 21c0
000000f0: 391a 083d b074 063e e4e7 90c0 25e7 b3bd
00000100: 5de4 a4bc e4a9 f7bd deaa cebc 0032 cfbd
00000110: d67c d0bd 291e debc 5a4e 5fbc ba04 433b
00000120: 9d72 a63c c353 a23d f558 a23c c491 e9bd
00000130: 9ca8 e8bd 5b8a 893d ef99 b6bd a9b1 8eba
00000140: 9176 843d 4743 373d 37ea 1f3d 0d84 1c3d
00000150: a273 e63d 26ec e6bd 3219 d6bc 8a84 f8bc
00000160: c203 0cbd d42a a4bd 556f e0bd 61e9 323c
00000170: d174 f9bd c65b ffbd 1b9f 893c 88e6 323d
00000180: 12c3 f5bd 1a4e d03d f54b cf3c 0d69 1e3c
00000190: edb8 bb3c ddd8 953c 92e2 dc3b e364 0ebe
000001a0: f212 db3d 022b df3c fb70 30bd af36 aebd
000001b0: 1c66 34bd 1c38 673d 598e 88bd 0e1e f1bd
000001c0: 8e67 4f3d 2da7 87bd 3986 cfbd e7fd c2bd
000001d0: f302 f33d a51e 723d f1b9 3c3d 4d4f 19bd
000001e0: 709a c83d bd38 3cbd 7d8b 2b3b cd0e 84bc
000001f0: d60f db3d 890a d23c b1b1 29be 79dc a0bd
00000200: d9e8 033d 7ef3 e63e bd59 a8bf af68 843d
00000210: edf6 323d 1b49 0ec0 b0f6 173f ba2a efbd
00000220: be4f 4d3d 82f7 51bd 31a0 823e 3490 0bc0
00000230: 5223 c0bc 641d cfbd 951a 92bd 1edd 33be
00000240: 95a1 ef3f fd82 26be 63da eb3c d4ac 563e
00000250: 116a 023d b00a 0ebf e193 ed3e aca8 b53d
00000260: 1dcd febf 937a d6bd 48aa a2bf 32eb 51bf
00000270: 9b79 163f 6860 fe3d ef9a 88be bea5 65be
00000280: fe1e 6cbd 5cf2 3fbc e695 363f 5d9a b63d
00000290: 1aea c93b 928a fabc 862b aebe cee6 c5bd
000002a0: c915 3abd c128 09bd fa43 ae3c 2e7d 033e
000002b0: b02f febd 773d 613e d727 853b 51e0 6bbd
000002c0: ad5d b43c d69b 673d dd2b afbe 956e b23e
000002d0: 723e 703e 7486 ea3d 6240 d3bd 0a47 583d
000002e0: 9db4 053d 6a00 fcbc 9223 febc 007a a33f
000002f0: b0a0 dcbd 6e97 8dbe 18f7 0fbd 05ce 1bbd
00000300: 8fc1 bfbd cd2e 033d 5ae5 42bd 3ab0 e9bd
00000310: a4fe d03d d575 9abc 7a7b 4eba b6df c63d
00000320: 6cc0 d23d 6495 debd 4d45 a0bc 5f2c 79bd
00000330: 3ae4 fbbb 1c7d eb3d 78fc 48bc 6edb 3bbd
00000340: 4e61 15be ea1e e43c f3ed 1ebe d76e 8bbd
00000350: b992 9c3d 61b2 aabd 658a 9ebc e722 a6bd
00000360: ee00 72bd 1ba6 fb3a 9f6b a13d ed8c 22bd
00000370: 6d04 05bc 8a22 533c 7434 ebbd c7af 4c3d
00000380: 7d0b a63b 1a5f c8bc 0642 6abd ca9e 6dbc
00000390: 7907 923d 1a63 6d3c beba 0cbe 2ed1 4a3d
000003a0: 3de2 28bd dca8 ea3d 2d10 b5bd 1261 a83c
000003b0: efe9 b93d e278 d7bd c943 bb3d 0107 92bd
000003c0: 8afa 443c 373c bc3d 5508 193c 9def 2fbc
000003d0: 0d1d 25bc 49fa 273d 3a68 4dbc 3f38 983d
000003e0: 852f ad3c c4cb e9bd c999 39bd 3aed 373d
000003f0: aa6d 4fbc c88b 92bd 2b9f 83bd f003 cc3d
0.09541822 0.32858124 -1.118578 0.013060311 0.02632816 0.19971013 -1.1521027 0.013883183
0.00041185608 0.08144477 -4.247984 -0.27767834 0.0466672 0.04882487 0.139509 -0.039430432
-3.3786728 -0.6617169 -3.9082682 -1.6064534 0.087423064 0.022081982 -1.584434 -0.8830962
-1.4401898 0.03555124 -0.12880917 0.14827965 -2.3857815 0.115205 -1.0783135 -0.027611518
-0.0052445964 -0.08396243 -1.5567364 0.0668775 -0.058498807 0.091132574 0.28313762 -0.53385925
-0.099975914 0.12146564 0.12171072 -1.7696964 0.2713398 0.16788612 -0.041125484 0.20808709
0.08430342 0.084381856 -0.2455292 0.2948335 -1.6421218 -0.010226811 -0.09044666 -0.19018285
-0.060687415 0.12112897 0.059930913 -2.5210402 0.033228133 0.1313045 -4.528307 -0.08784322
-0.020128423 -0.12092951 -0.02522796 -0.101169586 -0.101800606 -0.02711399 -0.01362952 0.0029757456
0.020318324 0.079261325 0.019817809 -0.11404756 -0.11360285 0.06715842 -0.08916079 -0.0010886687
0.06467927 0.044741895 0.039041724 0.03821187 0.11252524 -0.112755105 -0.026135061 -0.030336637
-0.03418327 -0.08015981 -0.10958735 0.0109199 -0.12180484 -0.12468676 0.0167995 0.043676883
-0.12000097 0.10171147 0.025304774 0.009668601 0.022915328 0.018291885 0.0067408765 -0.13905673
0.10696973 0.027242187 -0.043076497 -0.08506524 -0.04404269 0.056449994 -0.06667776 -0.117733106
0.050635867 -0.06623683 -0.10133023 -0.09521084 0.11865797 0.059111256 0.046075765 -0.037429143
0.097950816 -0.045952547 0.002617567 -0.016120339 0.1069638 0.02563979 -0.1657169 -0.07854552
0.032204483 0.45107645 -1.3152386 0.06465279 0.043692518 -2.223212 0.5936079 -0.11678071
0.050124876 -0.051261432 0.2551284 -2.1806765 -0.023454342 -0.10113028 -0.07133976 -0.17564818
1.8721186 -0.16260906 0.028790658 0.20964366 0.031839434 -0.5548506 0.46401885 0.08870062
-1.9906346 -0.10472598 -1.2708216 -0.81999505 0.58779305 0.12420732 -0.26680705 -0.22426507
-0.057646744 -0.011715498 0.71322477 0.08916161 0.0061619403 -0.030583654 -0.3401758 -0.09663163
-0.045430932 -0.03348613 0.021272648 0.12840721 -0.124114394 0.21996103 0.004063587 -0.05758697
0.022017324 0.0565451 -0.34213153 0.34849992 0.23461321 0.11451426 -0.103150144 0.052802123
0.03264295 -0.030761916 -0.03102282 1.2771606 -0.10772836 -0.27654594 -0.035147756 -0.038038272
-0.0936309 0.032027055 -0.047582008 -0.11410566 0.10204819 -0.018855015 -0.0007876676 0.09710638
0.10290608 -0.10868338 -0.019564295 -0.06083333 -0.007687119 0.11498472 -0.0122672245 -0.04586356
-0.145879 0.027846772 -0.15520458 -0.068082504 0.076451726 -0.08334804 -0.019353101 -0.08112126
-0.059082918 0.0019199284 0.07881855 -0.03968518 -0.008118731 0.012886653 -0.11484614 0.04997232
0.0050672875 -0.02445941 -0.05719187 -0.01450319 0.071303315 0.01448896 -0.13743111 0.049515896
-0.041231383 0.114579886 -0.08840976 0.0205541 0.090778224 -0.105211034 0.09143788 -0.07130242
0.012022624 0.091911726 0.009340365 -0.010738281 -0.010077727 0.041010175 -0.012537057 0.07432603
0.021140823 -0.11415818 -0.045312677 0.04490397 -0.012660423 -0.071555674 -0.06426843 0.099616885

func.2.bias f4 [32]
00000000: bca5 c53e 8af6 01be 309c e7be 41a1 87bd
00000010: 0f3b 9f3e 26cf dcbc 31e5 cabd 4aa0 133e
00000020: 0368 dc3c 1fa6 9a3d 227c 253e b34e 3fbd
00000030: 57bc b23d 37ba db3e 4d4b 29be c812 a1bd
00000040: b5a9 eebc cb5d 0b3f 01ee c93e 3056 dfbd
00000050: 6a0e ed3e c6a0 66bd daaf b73e f8af b6bd
00000060: caa0 553e 869e 883e fbb9 203f 0c4e 4a3e
00000070: 5572 3f3e 9211 00be c55d 893e c093 07be
0.38603008 -0.12691703 -0.4523635 -0.066225536 0.31099746 -0.026954245 -0.09906996 0.14416614
0.026905065 0.07551216 0.16160634 -0.046705913 0.08727329 0.42915508 -0.16532631 -0.0786491
-0.029133657 0.5443999 0.39439395 -0.10905111 0.4630006 -0.05630567 0.35876352 -0.08920282
0.20862117 0.26683444 0.62783784 0.19756335 0.18695958 -0.12506703 0.26829353 -0.13239956

func.4.weight f4 [16, 32]
00000000: 35a1 c9bc 8b08 cd3c 5c1a 6abe 2b3c 013e
00000010: f387 703c 8d4a 5b3f 5825 87bc ed03 4b3e
00000020: 188d c03e d659 463e 07ef f0bd efed 3c3d
00000030: 28bb 463e da4f 43be cd52 d5be 38d5 883d
00000040: dfda 29be 0593 3fbd 1e7c 8d3c 3237 0bbe
00000050: e010 91bf a123 9d3c 3474 9b3c 8268 33be
00000060: 38ba 88bd 8571 e0bf 4ae6 843f 1ca1 b2bf
00000070: d5d4 07be a36b fcbd eeaf ba3c 0a57 3abd
00000080: 0560 d23b ceda b8bd bd93 083c 423e f93c
00000090: 5652 11bc dc76 213c a84c 74bd 4934 b4bc
000000a0: 400d 80bd 800e 0f3d e508 67bc 26ca a93d
000000b0: 20c2 9fbc 7298 cc3f 1cca 5c3b 6e64 12bd
000000c0: 20ea 663d 63d5 b2bc b82e f2bc ba31 8ebd
000000d0: 3560 dfbc 5cef 22be 8d6c f1bc 612c 883d
000000e0: 7f72 41bc e641 fbbc ec0f cdbc e5c5 59bb
000000f0: 83a4 b8bc 6292 25bc 6f2c 9f3c c491 2fbe
00000100: ec6b 0140 1d7d 28bc 712a 023d 5b1a cf3d
00000110: 9e3e 54bd d0cf 07bd 5010 303e ea9c 063e
00000120: 95db fbbd ea05 123d e25b c2bd 9515 553e
00000130: d894 1dbd 697e 85bd 1403 8f3c aa06 0cbe
00000140: b713 ebbd 6fdc 42bd cdbc 6c3c cd85 29bc
00000150: 2866 95bd 0803 d9bd d744 1b3d 1582 143e
00000160: 1a87 873d 61a3 b3bd c56f 2e3d fbd9 55bc
00000170: 162f 86bd 0f7c 5a3b a33a 153d 2d0f 063e
00000180: d70f b3bf 9413 a3bb 90f4 f63d c6ea d6bc
00000190: 1381 96be 7695 09be 2984 54be c12a 443b
000001a0: ac69 a6bd c077 efbc 2e0e 323e 2452 403e
000001b0: e055 21bc 5d60 babd 5117 fabd 4a7d 5e3d
000001c0: 06bd 213d 708c 983d 71c4 493f 8915 94bd
000001d0: 8933 bb3f 973a 0d3e 42bb 5bbe bdb2 c73d
000001e0: 4119 593e c358 8ebd 15e0 aabd 5ad5 d9bb
000001f0: 6510 44be 5f41 d7bd dd17 513e 5238 043e
00000200: 06fa 45bb a3d0 873d cf77 433d e29c 833d
00000210: e4ae 35be 6aec 28be 33bc 15bc f185 b43c
00000220: b926 6dbd fc65 d9bd 083d 60bd ff77 85bd
00000230: 26b7 b33b f5d4 a1be 0a2e 44be f58e 2cbd
00000240: 5e91 2ebd 4d5a 963f 56c3 55be d5bc 963c
00000250: fe5f 81bd 3d40 c23d 847c 4ebd 03eb 00bd
00000260: fd35 57be 0b44 3abd 7b92 8ebe 5eec debc
00000270: 2b67 02be 2867 d03b fd90 1c3e c767 1a3d
00000280: 3591 83bc c089 a1bc 298a 6f3f feb4 2d3d
00000290: 7bf1 c53c 1b93 65be 4454 a83d 5f7b f0be
000002a0: af25 ccbd 010b cebd 8858 fcbc 20a1 a8bd
000002b0: 2f68 fabd bb6e 86bd a19d 483e 3881 a53d
000002c0: f92f cc3d 5142 9abd 307a bebd f4e0 16be
000002d0: 2072 27be 043e cbbd 5384 5dbe f657 063e
000002e0: 1fc2 7d3d 73de e93f 12e8 b8bc 5626 ba3f
000002f0: 8a2f ce3d 5a93 ba3d 9960 b43c 13d6 933d
00000300: a5dc e1be 1271 e83d 599d a9be 0884 1bbe
00000310: 9304 9fbf b9db 41be 22c6 55be 42f1 24bf
00000320: 0f0b 92be 7779 a93e 5f6a cbbd 46a7 0abe
00000330: 866a bb3d d12b 2cbf f032 ed3e 683a 49bd
00000340: 5a6a cbbd a225 acbe 069e 19be 4f90 f2bd
00000350: 93d0 02bc 29f9 e6bd 26a7 ab3e c62d afbd
00000360: 9ffd d93e 4de7 cdbd 8326 86be 7efb 173e
00000370: 0366 0c3f f5c5 613d a702 933f bcd1 1b3e
00000380: 4b4c c43e b75c f3bd be9e 0e3f 7cf6 3b3e
00000390: 2452 493f 1ece 22bd 4622 3a3d 1719 8d3e
000003a0: ea34 223e ce1d 92be 6e88 393f a219 9d3d
000003b0: a223 983d d241 583d ab92 56bf 6d71 69bd
000003c0: f877 de3d e1da cbbe 5337 cfbe e250 563e
000003d0: cb52 4f3d 3617 0b3d 200d 193e 6628 24be
000003e0: 85ef 9e3e db7c 3e3e 8e38 2cbe 6a9f 85bd
000003f0: 7072 67bf 5e1d e6bc dc41 79bf d164 0d3d
-0.024613002 0.025028488 -0.22861618 0.12620609 0.01468085 0.8566063 -0.0164973 0.19825716
0.37607646 0.19370207 -0.11764341 0.04612535 0.19407332 -0.1907343 -0.41664734 0.06681293
-0.16587399 -0.046771068 0.017271098 -0.13595274 -1.1333275 0.019182028 0.018976308 -0.17520335
-0.066761434 -1.7534643 1.0382779 -1.3955417 -0.13264783 -0.123252176 0.022788968 -0.045493163
0.006420138 -0.09026109 0.008336005 0.030425195 -0.008869728 0.009854998 -0.059643418 -0.021997588
-0.06252527 0.034925938 -0.014101242 0.0829051 -0.019501746 1.5984023 0.0033689803 -0.03574031
0.056375623 -0.021830266 -0.029563293 -0.06943078 -0.027267555 -0.15911621 -0.029470706 0.066490896
-0.011807083 -0.030671071 -0.025032006 -0.0033229527 -0.022539383 -0.010105701 0.019430367 -0.17145449
2.022212 -0.010283736 0.031778757 0.10112449 -0.05181753 -0.03315717 0.17193723 0.13145795
-0.12297741 0.03565017 -0.094901815 0.20809014 -0.038472027 -0.065182514 0.017457522 -0.13674417
-0.1147837 -0.047573503 0.0144493105 -0.010346842 -0.072948754 -0.10596281 0.037907448 0.14502747
0.066175655 -0.087713964 0.04258706 -0.013052459 -0.0655195 0.0033338105 0.036432873 0.13091727
-1.3989209 -0.004976699 0.12058365 -0.026234996 -0.2939535 -0.13435921 -0.2075354 0.002993271
-0.08125624 -0.029231906 0.17388222 0.18781334 -0.009847134 -0.09100411 -0.122114785 0.054318704
0.039486907 0.07448661 0.7881537 -0.0723067 1.4625102 0.13791882 -0.21458152 0.097508885
0.2120104 -0.06950524 -0.083435215 -0.006647748 -0.19146879 -0.105105154 0.2041926 0.1291211
-0.003020884 0.06631591 0.04772168 0.064264074 -0.17742497 -0.16496435 -0.0091391085 0.022036524
-0.057898257 -0.10615155 -0.054745704 -0.06517028 0.0054844795 -0.31607786 -0.19158188 -0.042128522
-0.0426191 1.1746308 -0.20875296 0.018400589 -0.06317137 0.09484909 -0.050411716 -0.031474125
-0.21016689 -0.045475047 -0.2784613 -0.027212318 -0.12734668 0.0063599534 0.15289684 0.037696626
-0.016060451 -0.019719005 0.9357019 0.042408936 0.024162998 -0.22419398 0.082191974 -0.46969125
-0.09968125 -0.100606926 -0.030803934 -0.08233857 -0.12226903 -0.06564089 0.1959138 0.08081287
0.099700876 -0.0753218 -0.09300649 -0.1473425 -0.16352129 -0.09923938 -0.21632509 0.13119492
0.061952706 1.8271011 -0.022571597 1.4542949 0.10067661 0.09110136 0.022018718 0.07218566
-0.4411365 0.113496915 -0.3312786 -0.15187085 -1.2423271 -0.18931474 -0.20876363 -0.6443063
-0.28524062 0.33100483 -0.09932398 -0.13540372 0.09151177 -0.6725436 0.46327925 -0.049127966
-0.09932394 -0.33622462 -0.15001687 -0.11843931 -0.007984298 -0.11277992 0.33525962 -0.085536525
0.4257631 -0.10053883 -0.26201257 0.1484203 0.5484316 0.055120427 1.1485184 0.15216726
0.38339457 -0.11882918 0.5571097 0.18355745 0.7864096 -0.03974735 0.045442842 0.27558205
0.15840498 -0.28538364 0.724738 0.07670905 0.074286714 0.052797146 -0.8381755 -0.056992937
0.10862726 -0.3981543 -0.40471897 0.20929292 0.050616067 0.033957683 0.14946413 -0.16031036
0.31042114 0.18602316 -0.16818449 -0.065245464 -0.9040899 -0.028090175 -0.9736612 0.034519974

func.4.bias f4 [16]
00000000: 147c aa3c 67d4 0e3d cac7 8c3c f1f4 c63d
00000010: 9fcf 753e 0c64 f13d 32f4 383e 5d1c e13d
00000020: cd5f 593e 37a9 24bd 5511 f1b9 60c9 daba
00000030: 594f 3b3b ff17 3b3b 83b0 193b f699 d137
0.020811118 0.03487053 0.01718511 0.097146876 0.24004982 0.117866606 0.18061903 0.10991738
0.21227951 -0.04020044 -0.00045980015 -0.0016692095 0.002858123 0.0028548238 0.0023451156 2.4986435e-05
